experiments/experiment_02/models/model_hidden_16.npz (npz, 1358 bytes, 4 tensors)

W1 f8 [1, 16]
0.2295634200868085 -1.9662247644310895 0.48869002538609024 3.3703115045569345 0.7579752764285785 -2.746235310152231 0.8773980412298914 0.24004771728811752
0.2440226053982541 -0.24001595120085784 0.6600847633992517 -0.5263865018203818 -1.561259941913658 1.9296571821282062 2.174175961478399 -2.8927109407479126
00000000: 7bbc d08a 5562 cd3f c011 3d19 a875 ffbf
00000010: e989 3a87 b246 df3f 993c cbe0 65f6 0a40
00000020: 66fe ed5d 5541 e83f 43cb e137 4af8 05c0
00000030: dc04 950e a513 ec3f 82af 9d33 e2b9 ce3f
00000040: 96c9 d5fa 213c cf3f b487 76ba d7b8 cebf
00000050: e867 ec14 6a1f e53f f5fa 4b81 28d8 e0bf
00000060: 302f 71b4 ebfa f8bf efb6 9b35 e0df fe3f
00000070: 8464 d25d b664 0140 7459 3aa2 4524 07c0

b1 f8 [1, 16]
8.159739431443793e-18 -1.6931626490973848e-18 1.5527998571478942e-18 3.3126862482154885e-19 2.37881262302538e-20 -2.178656989852775e-19 -1.1339093166501955e-18 1.9934141143318474e-17
4.273419549966137e-17 -1.963679869751436e-17 -1.0099449115820889e-17 2.8622683243733138e-18 1.1223783698498615e-18 1.1689504592060391e-18 3.088862409402748e-19 8.10274927184526e-19
00000000: 5a8f c2f5 a8d0 623c 1ac5 150b bc3b 3fbc
00000010: 643d 0ad7 e3a4 3c3c 42f4 6cc6 7c71 183c
00000020: 2f58 b81e 8515 dc3b 1bf5 f5df 5d13 10bc
00000030: 0700 0040 bcea 34bc e851 b81e 85fb 763c
00000040: 1e5c 8f42 74a2 883c fe28 5c8f c2a3 76bc
00000050: 9f99 9999 a949 67bc a370 3d0a 5766 4a3c
00000060: bdf5 d030 48b4 343c 9919 5964 3690 353c
00000070: 938b 3e35 b2ca 163c 2d6b 988f d4e4 2d3c

W2 f8 [16, 1]
-0.35639161079728215 -0.6372982565095888 -0.2083833391316843 0.5000559296083619 0.26870028223461245 -0.1337628855618856 -0.205729045755025 -0.7152847574651885
-1.0757354762557714 0.6764116580639444 0.5586176534177062 -0.09128442023095557 0.25068097828967434 0.43049617725691186 0.15464427573233658 0.3405022236098657
00000000: 8b5b 3cc2 1ecf d6bf 4635 3050 bf64 e4bf
00000010: c909 4d25 4eac cabf 63d7 fa4a 7500 e03f
00000020: 8fe9 27ab 6232 d13f f214 7469 241f c1bf
00000030: 9274 ad51 5455 cabf 257d 14dc 9ce3 e6bf
00000040: fba5 1a67 3636 f1bf 9f91 c00f 2aa5 e53f
00000050: c5b6 0c21 32e0 e13f f4b9 866f 6a5e b7bf
00000060: a3f0 de3a 280b d03f edc5 97d6 3f8d db3f
00000070: da59 6435 62cb c33f 62a8 a7d6 c9ca d53f

b2 f8 [1, 1]
5.5329005266280274e-17
00000000: 87eb 51b8 1ee5 8f3c
