experiments/experiment_02/models/model_hidden_8.npz (npz, 1166 bytes, 4 tensors)

W1 f8 [1, 8]
00000000: fe1e de6c 4e98 c6bf 4c37 99bf 9bec fabf
00000010: 01d1 4091 5b9c cb3f c835 b754 e70c 10c0
00000020: 22d4 d8b0 b48a bfbf f9a4 9bee 0ce5 08c0
00000030: 8348 9948 6989 f43f eaa4 31e8 c2c9 cb3f
-0.17652302089503985 -1.6827657207790763 0.21570915787163616 -4.01260120743013 -0.12321023290208236 -3.1118410722016248 1.283547671879689 0.21709476792901877

b1 f8 [1, 8]
00000000: 941e 85eb 517f 233c c763 44b4 1faa 20bc
00000010: b247 e17a 704c 913c bb6e 52d2 5492 603c
00000020: c3f5 285c df87 5c3c 2548 72b7 1188 563c
00000030: 2a5c 6b94 ae30 11bc 6e66 6666 a643 733c
5.284765612861633e-19 -4.516934316601344e-19 6.001654488869192e-17 7.186788826573449e-18 6.186620650044635e-18 4.885744659033779e-18 -2.3297016274379504e-19 1.6709080137306704e-17

W2 f8 [8, 1]
00000000: feeb f601 6731 d23f 55cb 5d0e 49f2 a3bf
00000010: 5af2 a491 c753 f5bf fe2b 8a30 22ef dabf
00000020: c094 270e ea9f cf3f 1e2b 67bc f23e e7bf
00000030: 0794 3af0 57f2 c53f c41d 127f 3e13 e5bf
0.2842652815995165 -0.038957865718564 -1.3329539956313483 -0.4208455537815893 0.24706769648688542 -0.7264341048952223 0.17145823697970305 -0.6585991365290558

b2 f8 [1, 1]
00000000: 0200 0000 000e 903c
5.570088661144281e-17
